…
gging Face team. This is not the instruction fine tuned model, but rather the base pre-trained model. This model may not be as well known as some of the other models, but it is a good model to start with since it is really small and easy to run locally.\n\n\nCode\nimport torch\nimport torch.nn.functional as F\nfrom transformers import AutoModelForCausalLM, AutoTokenizer\n\ntokenizer = AutoTokenizer.from_pretrained(\"HuggingFaceTB/SmolLM2-135M\")\nmodel = AutoModelForCausalLM.from_pretrained(\"HuggingFaceTB/SmolLM2-135M\")\nmodel\n\n\nLlamaForCausalLM(\n  (model): LlamaModel(\n    (embed_tokens): Embedding(49152, 576)\n    (layers): ModuleList(\n      (0-29): 30 x LlamaDecoderLayer(\n        (self_attn): LlamaSdpaAttention(\n          (q_proj): Linear(in_features=576, out_features=576, bias=False)\n          (k_proj): Linear(in_features=576, out_features=192, bias=False)\n          (v_proj): Linear(in_features=576, out_features=192, bias=False)\n          (o_proj): Linear(in_features=576, out_features=576, bias=False)\n          (rotary_emb): LlamaRotaryEmbedding()\n        )\n        (mlp): LlamaMLP(\n          (gate_proj): Linear(in_features=576, out_features=1536, bias=False)\n          (up_proj): Linear(in_features=576, out_features=1536, bias=False)\n          (down_proj): Linear(in_features=1536, out_features=576, bias=False)\n          (act_fn): SiLU()\n        )\n        (input_layernorm): LlamaRMSNorm((576,), eps=1e-05)\n        (post_attention_layernorm): LlamaRMSNorm((576,), eps=1e-05)\n      )\n    )\n    (norm): LlamaRMSNorm((576,), eps=1e-05)\n    (rotary_emb): LlamaRotaryEmbedding()\n  )\n  (lm_head): Linear(in_features=576, out_features=49152, bias=False)\n)\n\n\nThe input to the transformer layers is a sequence of embeddings. In the case of text inputs, the input first gets converted into a sequence of tokens. Then each token is converted into an embedding vector.\nHere is the conversion of the input text to tokens ids.\n\n\nCode\ninputs = tokenizer([\"The dog jumped over the\"], return_tensors=\"pt
…
to encode the entire input sequence into a contextualized representation in one shot, capturing relationships across the whole sequence. It’s typically used in understanding or embedding tasks and classification tasks, where the model needs a holistic view of the input.\n\n\nLet’s load a simple encoder model to illustrate some points.\n\n\nCode\nfrom transformers import AutoModel\n\ntokenizer = AutoTokenizer.from_pretrained(\"distilbert-base-uncased\")\nmodel = AutoModel.from_pretrained(\"distilbert-base-uncased\")\nmodel\n\n\nDistilBertModel(\n  (embeddings): Embeddings(\n    (word_embeddings): Embedding(30522, 768, padding_idx=0)\n    (position_embeddings): Embedding(512, 768)\n    (LayerNorm): LayerNorm((768,), eps=1e-12, elementwise_affine=True)\n    (dropout): Dropout(p=0.1, inplace=False)\n  )\n  (transformer): Transformer(\n    (layer): ModuleList(\n      (0-5): 6 x TransformerBlock(\n        (attention): DistilBertSdpaAttention(\n          (dropout): Dropout(p=0.1, inplace=False)\n          (q_lin): Linear(in_features=768, out_features=768, bias=True)\n          (k_lin): Linear(in_features=768, out_features=768, bias=True)\n          (v_lin): Linear(in_features=768, out_features=768, bias=True)\n          (out_lin): Linear(in_features=768, out_features=768, bias=True)\n        )\n        (sa_layer_norm): LayerNorm((768,), eps=1e-12, elementwise_affine=True)\n        (ffn): FFN(\n          (dropout): Dropout(p=0.1, inplace=False)\n          (lin1): Linear(in_features=768, out_features=3072, bias=True)\n          (lin2): Linear(in_features=3072, out_features=768, bias=True)\n          (activation): GELUActivation()\n        )\n        (output_layer_norm): LayerNorm((768,), eps=1e-12, elementwise_affine=True)\n      )\n    )\n  )\n)\n\n\n\n\nCode\ninputs = tokenizer([\"The dog jumped over the\"], return_tensors=\"pt\")\ninput_ids = inputs.input_ids\nprint(input_ids)\nprint(tokenizer.decode(input_ids[0]))\nlast_hidden_state = model(**inputs).last_hidden_state\nprint(last_hidden_state.shape)\n\n\ntensor([[ 101, 1996, 3899, 5598, 2058, 1996,  102]])\n[CLS] the d
…
a representation of the entire image and can be used as input to a classifier for downstream tasks.\n\nWe can load such a pre-trained ViT model from Hugging Face.\n\n\nCode\nfrom PIL import Image\n\nimage = Image.open('imgs/underwater.png')\nimage\n\n\n\n\n\n\n\nCode\nfrom transformers import ViTImageProcessor, ViTModel\n\nprocessor = ViTImageProcessor.from_pretrained(\"google/vit-base-patch16-224-in21k\")\nmodel = ViTModel.from_pretrained(\"google/vit-base-patch16-224-in21k\")\nmodel\n\n\nViTModel(\n  (embeddings): ViTEmbeddings(\n    (patch_embeddings): ViTPatchEmbeddings(\n      (projection): Conv2d(3, 768, kernel_size=(16, 16), stride=(16, 16))\n    )\n    (dropout): Dropout(p=0.0, inplace=False)\n  )\n  (encoder): ViTEncoder(\n    (layer): ModuleList(\n      (0-11): 12 x ViTLayer(\n        (attention): ViTSdpaAttention(\n          (attention): ViTSdpaSelfAttention(\n            (query): Linear(in_features=768, out_features=768, bias=True)\n            (key): Linear(in_features=768, out_features=768, bias=True)\n            (value): Linear(in_features=768, out_features=768, bias=True)\n            (dropout): Dropout(p=0.0, inplace=False)\n          )\n          (output): ViTSelfOutput(\n            (dense): Linear(in_features=768, out_features=768, bias=True)\n            (dropout): Dropout(p=0.0, inplace=False)\n          )\n        )\n        (intermediate): ViTIntermediate(\n          (dense): Linear(in_features=768, out_features=3072, bias=True)\n          (intermediate_act_fn): GELUActivation()\n        )\n        (output): ViTOutput(\n          (dense): Linear(in_features=3072, out_features=768, bias=True)\n          (dropout): Dropout(p=0.0, inplace=False)\n        )\n        (layernorm_before): LayerNorm((768,), eps=1e-12, elementwise_affine=True)\n        (layernorm_after): LayerNorm((768,), eps=1e-12, elementwise_affine=True)\n      )\n    )\n  )\n  (layernorm): LayerNorm((768,), eps=1e-12, elementwise_affine=True)\n  (pooler): ViTPooler(\n    (dense): Linear(in_features=768, out_features=768, bias=True)\n    (activation): Tanh()\n  )\n)\n\n\n\n\nCode\ninputs = processor(images=image, return_tensors=\"pt\")\ninputs.keys()\n\n\ndict_keys(['pixel_values'])\n\n\n\n\nCode\ninputs.pixel_values.shape  # (batch_size, num_channels, height, width)\n\n\ntorch.Size([1, 3, 224, 224])\n\n\n\n\nCode\n# Create patch embeddings from image\npatch_embeddings = model.emb
…
c similarities across modalities\n\n\n\n\nFigure 1 from the paper: “Learning Transferable Visual Models From Natural Language Supervision”\n\n\n\n\nCode\nfrom PIL import Image\nimport requests\n\nfrom transformers import CLIPProcessor, CLIPModel\n\nmodel = CLIPModel.from_pretrained(\"openai/clip-vit-large-patch14\")\nprocessor = CLIPProcessor.from_pretrained(\"openai/clip-vit-large-patch14\")\n\nimage = Image.open('imgs/tropical_island.png')\nimage\n\n\n\n\n\n\n\n\n\nCode\nmodel\n\n\nCLIPModel(\n  (text_model): CLIPTextTransformer(\n    (embeddings): CLIPTextEmbeddings(\n      (token_embedding): Embedding(49408, 768)\n      (position_embedding): Embedding(77, 768)\n    )\n    (encoder): CLIPEncoder(\n      (layers): ModuleList(\n        (0-11): 12 x CLIPEncoderLayer(\n          (self_attn): CLIPSdpaAttention(\n            (k_proj): Linear(in_features=768, out_features=768, bias=True)\n            (v_proj): Linear(in_features=768, out_features=768, bias=True)\n            (q_proj): Linear(in_features=768, out_features=768, bias=True)\n            (out_proj): Linear(in_features=768, out_features=768, bias=True)\n          )\n          (layer_norm1): LayerNorm((768,), eps=1e-05, elementwise_affine=True)\n          (mlp): CLIPMLP(\n            (activation_fn): QuickGELUActivation()\n            (fc1): Linear(in_features=768, out_features=3072, bias=True)\n            (fc2): Linear(in_features=3072, out_features=768, bias=True)\n          )\n          (layer_norm2): LayerNorm((768,), eps=1e-05, elementwise_affine=True)\n        )\n      )\n    )\n    (final_layer_norm): LayerNorm((768,), eps=1e-05, elementwise_affine=True)\n  )\n  (vision_model): CLIPVisionTransformer(\n    (embeddings): CLIPVisionEmbeddings(\n      (patch_embedding): Conv2d(3, 1024, kernel_size=(14, 14), stride=(14, 14), bias=False)\n      (position_embedding): Embedding(257, 1024)\n    )\n    (pre_layrnorm): LayerNorm((1024,), eps=1e-05, elementwise_affine=True)\n    (encoder): CLIPEncoder(\n      (layers): ModuleList(\n        (0-23): 24 x CLIPEncoderLayer(\n          (self_attn): CLIPSdpaAttention(\n            (k_proj): Linear(in_features=1024, out_features=1024, bias=True)\n            (v_proj): Linear(in_features=1024, out_features=1024, bias=True)\n            (q_proj): Linear(in_features=1024, out_features=1024, bias=True)\n            (out_proj): Linear(in_features=1024, out_features=1024, bias=True)\n          )\n          (layer_norm1): LayerNorm((1024,), eps=1e-05, elementwise_affine=True)\n          (mlp): CLIPMLP(\n            (activation_fn): QuickGELUActivation()\n            (fc1): Linear(in_features=1024, out_features=4096, bias=True)\n            (fc2): Linear(in_features=4096, out_features=1024, bias=True)\n          )\n          (layer_norm2): LayerNorm((1024,), eps=1e-05, elementwise_affine=True)\n        )\n      )\n    )\n    (post_layernorm): LayerNorm((1024,), eps=1e-05, elementwise_affine=True)\n  )\n  (visual_projection): Linear(in_features=1024, out_features=768, bias=False)\n  (text_projection): Linear(in_features=768, out_features=768, bias=False)\n)\n\n\n\n\nCode\ninputs = processor(text=[\"a photo of an island\", \"a photo of a plane\"], images=image, return_tensors=\"pt\", padding=True)\n\noutputs = model(**inputs)\nlogits_per_image = outputs.logits_per_image  # this is the image-text similarity score\nprint(logits_per_image)\nprobs = logits_per_image.softmax(dim=1)  # we can take the softma
…
 remains similar to CLIP - we can still use it for image-text comparisons or extract visual features for use with decoder LLMs (more on this later). There is a great notebook here.\n\n\nCode\nfrom transformers import AutoModel, AutoProcessor\n\nmodel = AutoModel.from_pretrained(\"google/siglip-so400m-patch14-384\")\nprocessor = AutoProcessor.from_pretrained(\"google/siglip-so400m-patch14-384\")\n\nimage = Image.open('imgs/sci_fi_ship.png')\nimage\n\n\n\n\n\n\n\nCode\nmodel\n\n\nSiglipModel(\n  (text_model): SiglipTextTransformer(\n    (embeddings): SiglipTextEmbeddings(\n      (token_embedding): Embedding(32000, 1152)\n      (position_embedding): Embedding(64, 1152)\n    )\n    (encoder): SiglipEncoder(\n      (layers): ModuleList(\n        (0-26): 27 x SiglipEncoderLayer(\n          (self_attn): SiglipSdpaAttention(\n            (k_proj): Linear(in_features=1152, out_features=1152, bias=True)\n            (v_proj): Linear(in_features=1152, out_features=1152, bias=True)\n            (q_proj): Linear(in_features=1152, out_features=1152, bias=True)\n            (out_proj): Linear(in_features=1152, out_features=1152, bias=True)\n          )\n          (layer_norm1): LayerNorm((1152,), eps=1e-06, elementwise_affine=True)\n          (mlp): SiglipMLP(\n            (activation_fn): PytorchGELUTanh()\n            (fc1): Linear(in_features=1152, out_features=4304, bias=True)\n            (fc2): Linear(in_features=4304, out_features=1152, bias=True)\n          )\n          (layer_norm2): LayerNorm((1152,), eps=1e-06, elementwise_affine=True)\n        )\n      )\n    )\n    (final_layer_norm): LayerNorm((1152,), eps=1e-06, elementwise_affine=True)\n    (head): Linear(in_features=1152, out_features=1152, bias=True)\n  )\n  (vision_model): SiglipVisionTransformer(\n    (embeddings): SiglipVisionEmbeddings(\n      (patch_embedding): Conv2d(3, 1152, kernel_size=(14, 14), stride=(14, 14), padding=valid)\n      (position_embedding): Embedding(729, 1152)\n    )\n    (encoder): SiglipEncoder(\n      (layers): ModuleList(\n        (0-26): 27 x SiglipEncoderLayer(\n          (self_attn): SiglipSdpaAttention(\n            (k_proj): Linear(in_features=1152, out_features=1152, bias=True)\n            (v_proj): Linear(in_features=1152, out_features=1152, bias=True)\n            (q_proj): Linear(in_features=1152, out_features=1152, bias=True)\n            (out_proj): Linear(in_features=1152, out_features=1152, bias=True)\n          )\n          (layer_norm1): LayerNorm((1152,), eps=1e-06, elementwise_affine=True)\n          (mlp): SiglipMLP(\n            (activation_fn): PytorchGELUTanh()\n            (fc1): Linear(in_features=1152, out_features=4304, bias=True)\n            (fc2): Linear(in_features=4304, out_features=1152, bias=True)\n          )\n          (layer_norm2): LayerNorm((1152,), eps=1e-06, elementwise_affine=True)\n        )\n      )\n    )\n    (post_layernorm): LayerNorm((1152,), eps=1e-06, elementwise_affine=True)\n    (head): SiglipMultiheadAttentionPoolingHead(\n      (attention): MultiheadAttention(\n        (out_proj): NonDynamicallyQuantizableLinear(in_features=1152, out_features=1152, bias=True)\n      )\n      (layernorm): LayerNorm((1152,), eps=1e-06, elementwise_affine=True)\n      (mlp): SiglipMLP(\n        (activation_fn): PytorchGELUTanh()\n        (fc1): Linear(in_features=1152, out_features=4304, bias=True)\n        (fc2): Linear(in_features=4304, out_features=1152, bias=True)\n      )\n    )\n  )\n)\n\n\n\n\nCode\ntexts = [\"an alien ship\", \"sc-fi ship in the forest\", \"sci-fi ship\"]\n# important: we pass padding=\"max_length\" as that's how the model was trained\ninputs = processor(text=texts, images=image, padding=\"max_length\", return_tensors=\"pt\")\nfor k,v in inputs.items():\n  print(k,v.shape)\n\n\ninput_ids t
…
